data.pth (torch, 5655 bytes, 6 tensors)

l1.weight f4 [8, 66]
0	0xbc60d818	-0.013723396
1	0xbdc9e75b	-0.09858581
2	0x3d80ef82	0.062956825
3	0xbdd67738	-0.10471958
4	0x3dd832ca	0.10556562
5	0xbce3fb50	-0.027829796
6	0x3dd4d0a0	0.103913546
7	0x3db331d6	0.0874974
8	0x3dbc0a26	0.09181623
9	0xbcaf7d60	-0.021422088
10	0x3dd6f8fe	0.1049671
11	0x3d86c64e	0.06580792
12	0xbce5f7d4	-0.028072275
13	0x3d8ca356	0.06867091
14	0xbdeb9d1b	-0.11504575
15	0x3d8303ca	0.06397207
16	0xbd2d5aea	-0.04232303
17	0xbdf4614e	-0.11932622
18	0x3ba37dc0	0.004989356
19	0x3d6735a0	0.056447625
20	0x3dad01b6	0.08447592
21	0xbdda7144	-0.10666135
22	0x3cad0550	0.021120697
23	0x3d7f844c	0.062382028
24	0x3d8b34b8	0.06797165
25	0xbde13d35	-0.109980024
26	0x3d7fec90	0.062481463
27	0x3d9fd490	0.07804215
28	0x3dd9ffd2	0.10644497
29	0x3d9b80c4	0.075929195
30	0x3da6eeb8	0.08151001
31	0x3d8e594e	0.06950627
32	0x3dc43edc	0.09582302
33	0xbde34206	-0.11096577
34	0xbd05a9f2	-0.032632776
35	0xbd84faca	-0.06493147
36	0x3d39bda8	0.045346886
37	0x3dc2df54	0.09515253
38	0xbdb82ff3	-0.089935206
39	0xbd37d18e	-0.04487758
40	0xbdf48b18	-0.119405925
41	0xbcaae060	-0.020858943
42	0xbc9391b4	-0.018013813
43	0xbd291114	-0.041276053
44	0xbdbc97c0	-0.092086315
45	0x3c6cda90	0.014456406
46	0x3d589800	0.052879333
47	0x3ddfa118	0.10919398
48	0x3d1f87e0	0.03894794
49	0xbda30855	-0.079605736
50	0x3d990ffc	0.07473752
51	0xbdc0b52f	-0.09409558
52	0xbda32d7c	-0.0796766
53	0x3dde4890	0.10853684
54	0xbb1a6d00	-0.0023563504
55	0xbd70d9ba	-0.05880139
56	0xbda436ee	-0.080182895
57	0x3d157fc8	0.036498815
58	0x3d059378	0.03261134
59	0xbdc2dee5	-0.0951517
60	0xbc232d30	-0.009959504
61	0xbd9df2a6	-0.07712297
62	0xbc58f7f0	-0.013242707
63	0x3dc3570e	0.09538089
64	0x3daa2c0a	0.08309181
65	0xbc3470b8	-0.011013202
66	0x3d0ae830	0.033912838
67	0x3da9586c	0.08268818
68	0x3d548140	0.051881075
69	0x3b98be80	0.0046613812
70	0x3c0a19f0	0.008429036
71	0x3dbf8fa0	0.09353566
72	0x3db2bfce	0.0872799
73	0xbdf6ab73	-0.1204442
74	0xbd91ebba	-0.071250394
75	0xbca30d88	-0.019903913
76	0x3deaf62a	0.11472733
77	0x3dbf58c8	0.093431056
78	0xbdca50be	-0.098786816
79	0xbc84b5d4	-0.016199984
80	0xbcb8d608	-0.022562996
81	0x3dd6f04a	0.1049505
82	0x3df98272	0.121830836
83	0xbd99e168	-0.07513696
84	0x3da69354	0.08133569
85	0x3d8b7024	0.068084985
86	0x3d5116ac	0.051047012
87	0x3df73802	0.120712295
88	0x3d9c1f00	0.076231
89	0x3dba3cc0	0.090936184
90	0x3c002fa0	0.007823855
91	0x3c8bc7a0	0.017062962
92	0xbc4a1bd8	-0.01233574
93	0x3dc5d33a	0.09659429
94	0xbdde2c84	-0.108483344
95	0xbd051c00	-0.032497406
96	0xbcbe075c	-0.023196869
97	0xbddb3498	-0.10703391
98	0x3de480b0	0.11157358
99	0x3c352cb0	0.011058018
100	0xbd4c4fae	-0.049880676
101	0xbd962990	-0.07332146
102	0x3dc50e3c	0.096218556
103	0xbd88f402	-0.06687166
104	0xbd29c10c	-0.04144387
105	0xbc90d814	-0.01768116
106	0x3d8c114e	0.06839238
107	0x3df9f562	0.12205006
108	0xbd525dba	-0.051358916
109	0xbc8fd22c	-0.017556272
110	0x3d1f13a8	0.038837105
111	0xbdbca652	-0.092114106
112	0xbdba093e	-0.09083794
113	0xbdc66908	-0.09688002
114	0x3dbe1bdc	0.092826575
115	0xbd800600	-0.062511444
116	0x3dd46a0c	0.10371789
117	0x3dd4fb90	0.10399544
118	0xbd9cdb91	-0.076590665
119	0xbca9af2c	-0.020713411
120	0xbde8bee8	-0.113645375
121	0x3d9bcda0	0.07607579
122	0xbd7539d0	-0.059869587
123	0xbd936b9c	-0.07198259
124	0x3c062aa0	0.0081888735
125	0xbd8f303f	-0.06991624
126	0x3dd1c38c	0.10242376
127	0x3df6be40	0.12048006
128	0x3dab72ce	0.08371507
129	0xbd23e0e4	-0.040009394
130	0x3dc8022a	0.09766038
131	0x3d84e846	0.06489615
132	0x3dd22dec	0.10262665
133	0xbd5eb65c	-0.05437313
134	0xbd49e2a0	-0.049288392
135	0x3db133de	0.08652471
136	0x3dd6b0c6	0.104829356
137	0x3d9a38ee	0.0753039
138	0x3cccbaa8	0.024991348
139	0xbc9a7564	-0.018854804
140	0xbc57c890	-0.013170376
141	0x3bd959e0	0.0066330284
142	0xbd2ab408	-0.041675597
143	0xbd982869	-0.074295826
144	0xbd4fa256	-0.050691925
145	0xbd4c5efe	-0.04989528
146	0x3dc98008	0.09838873
147	0x3d84ef76	0.06490986
148	0xbd630b82	-0.055430897
149	0xbdbed93a	-0.093187764
150	0xbdbe98ee	-0.09306513
151	0xbdb321ca	-0.08746679
152	0x3dc1b24e	0.09457837
153	0xbd032ffe	-0.03202819
154	0xbcd09438	-0.025461301
155	0xbdee2278	-0.11627668
156	0x3dc13bfa	0.09435268
157	0xbdeca555	-0.11554972
158	0xbd45019a	-0.04809723
159	0x3d8bc7e8	0.068252385
160	0xbd9c974c	-0.07646045
161	0x3dd8e296	0.10590093
162	0x3d8ab870	0.0677346
163	0xbdd8078f	-0.10548317
164	0xbdc5f0b8	-0.09665054
165	0x3c86a3e8	0.016435578
166	0xbddd0c0d	-0.10793314
167	0x3ba88e80	0.0051439404
168	0x3cfeea80	0.031117678
169	0x3deaf082	0.114716545
170	0x3d249f78	0.040191144
171	0xbce85c0c	-0.028364204
172	0xbde50953	-0.11183419
173	0xbd1ee25e	-0.0387901
174	0x3c9ac2a0	0.018891633
175	0x3ca3a2f8	0.01997517
176	0x3df6ac78	0.120446146
177	0x3dc797ca	0.09745748
178	0xbc5721f8	-0.013130657
179	0xbdac9d56	-0.08428447
180	0x3c399c30	0.011328742
181	0xbd579fe2	-0.05264271
182	0x3dc570c6	0.096406505
183	0xbd3021a8	-0.043000847
184	0xbd77bca8	-0.06048265
185	0x3c5161d0	0.012779668
186	0xbddaa855	-0.10676638
187	0x3d658bb8	0.05604145
188	0x3d67eb3c	0.05662082
189	0x3d720628	0.059087902
190	0xbc952dc8	-0.018210307
191	0x3d95de86	0.073178336
192	0x3ded82e0	0.11597228
193	0xb94a1a00	-0.00019273907
194	0xbc707328	-0.014675893
195	0x3cb8cc30	0.022558302
196	0xbd10d8ce	-0.03536301
197	0x3de1d702	0.110273376
198	0xbdb822cd	-0.08991013
199	0x3df4d290	0.11954224
200	0xbca03590	-0.01955679
201	0x3dbe6d0c	0.09298143
202	0x3d0009a4	0.031259194
203	0xbdc6bb64	-0.09703711
204	0x3dacd610	0.08439267
205	0x3df7ad58	0.120936096
206	0xbbe57670	-0.0070026442
207	0xbdc9d9a7	-0.09855967
208	0x3d6682e0	0.056277156
209	0x3df1251a	0.11774655
210	0xbdd25cef	-0.10271632
211	0xbd158148	-0.036500245
212	0x3d44f604	0.04808618
213	0x3c422760	0.011850208
214	0x3da5dffe	0.08099364
215	0x3dd1a944	0.10237363
216	0xbdaf35ac	-0.08555159
217	0x3dd803d2	0.10547604
218	0x3be0bc40	0.0068583786
219	0x3de6dc70	0.11272514
220	0x3d4be74c	0.04978113
221	0x3dc67f24	0.09692219
222	0x3c1d40e0	0.009597987
223	0x3d3f5ddc	0.04672037
224	0xbd2c3d50	-0.04205066
225	0xbd13da20	-0.036096692
226	0x3c45ce50	0.0120731145
227	0xbb24f780	-0.0025171936
228	0xbde1737e	-0.110083565
229	0xbb7d0760	-0.0038609132
230	0x3d862dbe	0.065516934
231	0xbd01a39e	-0.031650178
232	0x3dbd2220	0.092350245
233	0x3bdb2700	0.006687999
234	0x3d09e5c8	0.033666402
235	0xbd8be852	-0.06831421
236	0x3d1d9db4	0.038480476
237	0xbd615c4a	-0.055019654
238	0xbd08eb5a	-0.033427574
239	0xbd9ce9fe	-0.07661818
240	0xbd976971	-0.07393158
241	0xbdeb88e0	-0.11500716
242	0xbde4bc6a	-0.1116875
243	0x3d3ee844	0.046608225
244	0x3dcb8138	0.09936756
245	0xbde56ae2	-0.11202027
246	0x3d0583a0	0.03259623
247	0x3cd53568	0.026026443
248	0x3dd2314c	0.10263309
249	0xbdaa86ec	-0.083265156
250	0xbd938dcd	-0.07204781
251	0x3dc5cbc8	0.09658009
252	0xbda5df9e	-0.08099292
253	0xbc7b8fd0	-0.015354112
254	0xbdc284c1	-0.09497977
255	0xbdc92b14	-0.098226696

l1.bias f4 [8]
0	0x3c607e70	0.01370202
1	0x3d92228a	0.07135494
2	0xbb3c3680	-0.0028719008
3	0x3d475844	0.04866816
4	0xbdf6b744	-0.12046674
5	0xbd75af62	-0.05998171
6	0xbdf8bc97	-0.12145346
7	0xbdb01914	-0.08598533

l2.weight f4 [8, 8]
0	0xbe5e6f9b	-0.21722262
1	0xbe060a20	-0.130898
2	0x3e9f89bd	0.31159773
3	0xbde142da	-0.10999079
4	0xbea4af7b	-0.3216513
5	0x3e1f2b72	0.15543917
6	0xbde967de	-0.11396764
7	0x3e6cd57e	0.23128316
8	0x3e76ce46	0.24102125
9	0xbe7715ce	-0.24129412
10	0x3e4c0cc2	0.19926742
11	0x3dba79cc	0.09105262
12	0xbce66d90	-0.028128415
13	0xbe8327d1	-0.25616315
14	0xbe6633ac	-0.22480649
15	0x3e878db3	0.26475295
16	0xbe815c76	-0.25265855
17	0xbeb3cb04	-0.35115826
18	0x3dc33928	0.09532386
19	0xbd8a43cc	-0.067512125
20	0xbde954d8	-0.11393136
21	0x3e8117ff	0.2521362
22	0x3df475f0	0.11936557
23	0x3d0ba8f8	0.034096688
24	0xbdaf5aec	-0.08562264
25	0xbeb17520	-0.34659672
26	0x3eb3a829	0.35089234
27	0x3e81fd0b	0.2538837
28	0x3dda87b4	0.106704146
29	0xbe31da9b	-0.17368548
30	0xbe65d07a	-0.22442809
31	0xbe745595	-0.23860772
32	0x3e4bd37e	0.19904897
33	0x3e9ef1b9	0.31043795
34	0xbe5f4193	-0.21802358
35	0xbe744919	-0.2385601
36	0xbe331f17	-0.17492329
37	0xbe8831d1	-0.26600507
38	0xbea5d2e7	-0.32387468
39	0x3dbb2b08	0.09139067
40	0xbd9e7c44	-0.077385455
41	0xbe04575a	-0.12923947
42	0xbd9cc114	-0.07654014
43	0xbe9b9a56	-0.30391186
44	0x3e3c92fa	0.18415442
45	0xbe3b8c38	-0.18315208
46	0xbe3bf021	-0.1835332
47	0x3e2263ae	0.15858337
48	0xbea6a501	-0.32547763
49	0xbe4f4c54	-0.2024396
50	0x3eb0bde7	0.34519884
51	0x3e340016	0.17578158
52	0xbdda7634	-0.10667077
53	0xbdc94434	-0.09827462
54	0x3e7848a2	0.24246457
55	0x3ceb7ab0	0.028745025
56	0xbd68d1b0	-0.0568406
57	0x3e14ddda	0.14537755
58	0x3cc87df0	0.024474114
59	0xbeb43fcb	-0.3520492
60	0x3c982310	0.018571407
61	0x3e62989a	0.22128525
62	0xbd9a19e8	-0.075244725
63	0x3e7612ea	0.24030653

l2.bias f4 [8]
0	0xbe06b215	-0.1315387
1	0x3e5f016e	0.21777889
2	0xbe969df9	-0.294174
3	0x3dbf3b64	0.093375
4	0x3eaa1995	0.33222643
5	0x3e3a100a	0.18170181
6	0x3d6db9d8	0.058038563
7	0x3e86874d	0.262751

l3.weight f4 [10, 8]
0	0x3e38030a	0.1796991
1	0xbe42b2cc	-0.19013518
2	0x3e80799f	0.2509279
3	0x3e33a712	0.17544201
4	0x3e04f28e	0.12983152
5	0xbe059c12	-0.13047817
6	0xbe869223	-0.26283368
7	0xbc95c750	-0.018283516
8	0x3e70b63a	0.23507014
9	0xbe7f604f	-0.24939083
10	0x3e9ce765	0.3064529
11	0xbe7739c8	-0.24143136
12	0xbe34b77a	-0.17648116
13	0x3d61e790	0.055152476
14	0xbd653c70	-0.05596584
15	0xbd6e5130	-0.058182895
16	0xbe896456	-0.26834363
17	0x3d2a3388	0.04155305
18	0x3e8d2189	0.27564648
19	0xbe4cf7fc	-0.20016474
20	0x3e58e0e2	0.21179536
21	0xbe908d34	-0.2823273
22	0x3d81d75c	0.06339905
23	0xbe66e3ce	-0.22547838
24	0x3eac5a81	0.336628
25	0xbd63b550	-0.055592835
26	0xbcc23770	-0.023708075
27	0x3d14cda8	0.03632894
28	0x3e91e687	0.2849619
29	0xbba98b00	-0.005174041
30	0xbe452920	-0.19253969
31	0x3bd38240	0.006454736
32	0x3da85dec	0.08221039
33	0xbe2d188f	-0.169039
34	0xbd7e9610	-0.06215483
35	0x3d7eb310	0.062182486
36	0x3ea21ba7	0.31661722
37	0xbe83660a	-0.25663787
38	0x3e992461	0.29910567
39	0x3e3de322	0.18543676
40	0x3e6d1cf2	0.23155573
41	0xbe5b9f24	-0.21447426
42	0x3e188266	0.14893493
43	0x3db8e7ec	0.090286106
44	0xbe3a010b	-0.1816446
45	0xbdd23a00	-0.10264969
46	0x3e5bd9a6	0.21469745
47	0x3e0caa16	0.13736758
48	0x3d1fddf8	0.039030045
49	0xbe707605	-0.23482521
50	0xbe3da48f	-0.18519805
51	0xbd054af0	-0.03254217
52	0x3d4b0c88	0.049572498
53	0xbe2e1398	-0.16999662
54	0x3d094f60	0.033522964
55	0x3e2bb62e	0.16768715
56	0xbeb1f08b	-0.34753832
57	0x3e02b2f2	0.12763575
58	0xbdbb5128	-0.09146339
59	0x3e7102a2	0.2353616
60	0x3e84b20d	0.25917092
61	0xbd3eb568	-0.04655972
62	0x3e20df8e	0.1571028
63	0x3dd944d8	0.10608834
64	0x3d9ad3c4	0.07559922
65	0xbe923f7e	-0.28564066
66	0x3c79b7a0	0.0152415335
67	0x3bacd040	0.005273849
68	0xbe7a8e5c	-0.24468368
69	0x3de57c20	0.112053156
70	0x3d0c1a50	0.03420478
71	0xbe8acaa4	-0.27107728
72	0xbe2b7a29	-0.16745819
73	0xbb93f3c0	-0.0045151412
74	0x3ea1d9d3	0.316115
75	0x3d04ddc0	0.03243804
76	0x3ea07747	0.31341
77	0x3e46025e	0.1933684
78	0x3e49c622	0.19704488
79	0xbe6dcded	-0.23223086

l3.bias f4 [10]
0	0xbeab97a6	-0.33514136
1	0x3e828127	0.2548916
2	0xbe54a10f	-0.20764564
3	0x3d66fe60	0.056394935
4	0x3ea0b139	0.3138521
5	0x3e9b0663	0.3027831
6	0xbda67360	-0.08127475
7	0xbcb23420	-0.02175337
8	0x3e73656a	0.23769155
9	0x3e60aa06	0.21939859
