backend/data.pth (torch, 5655 bytes, 6 tensors)

l1.weight f4 [8, 66]
00000000: 1c6d 593f f305 8ebc c4b8 13bf 8a60 ebbd
00000010: b44e a13e ffcc 8c3e 9287 a93e d140 fbbe
00000020: f01b 8cbe 2f26 0ebf 26f5 10bf df29 29bf
00000030: 7795 bb3d 4026 9b3e dcb4 223f e3f2 b13e
00000040: 25ae 3f3f fd72 4dbe 1f83 94be 511c b23e
00000050: 79b0 df3e 1a83 0abf 6f75 ce3e 538d 123f
00000060: 062a 1b3f 2c67 ce3e 55ff 063f 1944 133f
00000070: 1582 9d3e 3ab1 b43e 5586 293f b08d 67be
00000080: 9abe 18be 41ab de3e a053 e2be c48e 82be
00000090: 9022 85be 80aa c2be 60c7 303f 6f54 233f
000000a0: eca6 11bf 530e 33bd 319b 673e 0bd4 fdbe
000000b0: 739b e33e 0237 1c3d 0ccf 01bf 48e7 fabd
000000c0: 7a97 8bbe 1efd d7bd a1f4 0e3e 774e d2be
000000d0: 8108 283f ed6e 073f 0b83 84bc 5617 81be
000000e0: 07ab 8f3d 5bba abbd 9178 af3f 52e8 1c3f
000000f0: 7577 243f bb5d ed3e 0b0f 053f af4a e83e
00000100: 96c8 8abe 4c4f 2a3e 5463 c03e 9d8f 82be
00000110: 648f ef3e dbdc bdbe f186 da3e dfa1 993e
00000120: c95a da3e c42d 283e 6d97 f03e 5865 d23e
00000130: 03b5 fd3e bd89 a83e 0ec5 24be 40aa fc3e
00000140: 5c69 133f ea02 ffbc 8f76 e53e 0d35 33be
00000150: 5a4f 203f 9e4a 973e 4249 853e d873 8a3e
00000160: 56a2 aebe d686 093f c902 843e 2e22 a83e
00000170: 3135 203f bd6c c63e fabf df3e 97bd bf3e
00000180: bd3b 0cbf 90e4 06bf fced 54bc 8534 8ebe
00000190: e17c dfbe 03cd bd3d 64ed 59be 014a 613f
000001a0: d675 083f 906b af3e b15f 073f fc58 a7be
000001b0: e530 54bd 38e2 f6bd bb31 a73e 12d4 6c3d
000001c0: d9ca f93e eff2 eb3e 6304 903e 4686 abbe
000001d0: 9342 263d bcb3 1d3e 705e 20bf 6e6f a03e
000001e0: f598 a9be 8055 173f 9229 143f 28e0 77be
000001f0: dc71 0e3f 9b5d a93e e80d 3f3e 7475 23bf
00000200: a3a6 043f 6a65 cabe cb51 cc3e 4ed1 9f3e
00000210: 09d9 bdbe e226 ef3e 7357 a03e 544e 5f3f
00000220: 101b 343f 5042 ef3e 9993 483f 13cb 40bf
00000230: dd72 8a3e 2891 d03e ae36 743d e984 ae3e
00000240: 71d6 0e3f f001 2a3f b80c 9ebe 9448 fdbd
00000250: a173 7ebe 3966 993e fde5 9dbe 4d11 39bd
00000260: d4f2 1d3f 5fe5 40bf d181 04bd 3bce 763f
00000270: 4d8e 39be 7fe3 253f 46c9 283f d944 dc3e
00000280: 1e9a 7abd fc6b 273f dab0 9ebe b2fd e43e
00000290: 73e6 343f ca67 83be c4a9 8a3e 74c0 aebe
000002a0: 902b 223f d0ee cbbe 3dc4 debe c82a d7bd
000002b0: 7ee7 543e 7168 7f3e 42b9 ae3e b5e3 8e3f
000002c0: c3da 60bd a72b 0dbb eb80 8a3d f12e f23d
000002d0: f9df 413e 6258 1f3f 7e4a 883f b869 febe
000002e0: 2ca4 19bf a415 9fbe c357 ca3e bff3 b5be
000002f0: 6d7d 43be ee63 903e 52e0 40bf 2912 4ebe
00000300: 2eb0 bf3e a1aa ad3e 2217 24be 9deb d2bc
00000310: ade5 8b3e d1ff ad3d b753 043f 372d 4c3f
00000320: 3c56 cc3e ce2b cbbe d51b 693e 0397 b93e
00000330: 321f ae3e 543c 68bc 8a83 ba3e 871b cf3e
00000340: f22c b83e e342 fd3e 726f cabe b82b b03e
00000350: de2e 89be 568f 9d3e fc21 b8be 318d 143f
00000360: 7562 4abe b118 b5be 1473 bf3e 224c 82bc
00000370: 7a1a 9abe ec52 2a3f 64cd 013f 2428 ab3e
00000380: 675b 103f c2f7 cfbd c5fa d53d b4ae a03e
00000390: 824a d4be c73e 413f a5d6 d9bd 2fa4 aebe
000003a0: fdd8 273f 41cd 87be f4ef 20bd bcb7 7ebe
000003b0: f278 8cbe c5fb ec3d e871 123f 302a 543f
000003c0: 4103 1a3d 7700 8e3e 584f 9cbe 6e39 33be
000003d0: b3a5 f23e 6a66 dc3e 8c6b e63e c222 26bf
000003e0: 9ac0 12be ef43 23be 49d8 24bf 2e32 89be
000003f0: a682 253f 1d01 c7be 1507 583e 82e6 2e3f
0.8493211 -0.017336821 -0.57703805 -0.11493023 0.31505358 0.2750015 0.33111244 -0.49072888
-0.27365065 -0.55527014 -0.56624067 -0.66079515 0.091593675 0.3030262 0.6355722 0.3475562
0.748751 -0.20063396 -0.29006287 0.3478723 0.43689325 -0.54106295 0.4032397 0.57246894
0.60611 0.4031309 0.52733356 0.57525784 0.30763307 0.35291463 0.662206 -0.22612643
-0.14916459 0.4349003 -0.44204426 -0.25499547 -0.26002932 -0.38020706 0.6905422 0.6380071
-0.5689533 -0.043714833 0.22617795 -0.49575838 0.44454536 0.038138397 -0.50706553 -0.12251145
-0.27264005 -0.10546325 0.13960506 -0.4107549 0.65637976 0.52903634 -0.016175767 -0.25213116
0.07015043 -0.08385154 1.3708669 0.6129199 0.64244777 0.46360573 0.5197608 0.4536948
-0.2710616 0.16631812 0.3757578 -0.25500193 0.46789086 -0.37082562 0.42681077 0.3000631
0.4264739 0.16423708 0.4699053 0.41092944 0.49552163 0.32917586 -0.16090795 0.4934864
0.5758264 -0.03112932 0.44817016 -0.17500706 0.6262108 0.29549116 0.26032454 0.27041507
-0.34108227 0.5372137 0.25783375 0.32838577 0.62581164 0.38754836 0.43701154 0.37449333
-0.54778653 -0.5269251 -0.012996193 -0.27774444 -0.43649963 0.092676185 -0.21281964 0.88003546
0.53304803 0.3426175 0.5288039 -0.32685077 -0.051804442 -0.120548666 0.3265513 0.057819434
0.48787573 0.4608378 0.28128347 -0.3350088 0.040590834 0.15400594 -0.626441 0.31335014
-0.3312451 0.5911484 0.5787593 -0.24206603 0.55642486 0.33079228 0.18657649 -0.63851094
0.5181677 -0.39530498 0.39906153 0.31214374 -0.37079647 0.46709353 0.31316718 0.87228894
0.70353794 0.4673028 0.78350216 -0.75309867 0.2704076 0.40735745 0.05962246 0.34085777
0.5579596 0.66409206 -0.3086908 -0.12367359 -0.24848796 0.29960802 -0.3083953 -0.045182515
0.6169865 -0.7534999 -0.032350365 0.9640843 -0.1812069 0.64800256 0.6593212 0.43021277
-0.061182134 0.65399146 -0.30994302 0.44724804 0.7066414 -0.25665122 0.27082646 -0.34131205
0.6334772 -0.39830637 -0.43509093 -0.10506207 0.20791432 0.24942185 0.34125715 1.1163241
-0.054896127 -0.0021540911 0.067628704 0.118253596 0.18933095 0.62244236 1.0647733 -0.49690032
-0.6001613 -0.31071198 0.39520082 -0.35537526 -0.19090815 0.2820124 -0.75342286 -0.20124115
0.37439102 0.33919242 -0.1602445 -0.025747115 0.27323666 0.08496059 0.5169024 0.7975649
0.39909542 -0.39681858 0.22764523 0.36248025 0.34008175 -0.01417454 0.3642848 0.4045069
0.3597179 0.49465093 -0.3953815 0.34408355 -0.2679357 0.3077342 -0.35963428 0.5802794
-0.19764121 -0.353704 0.37392485 -0.015905444 -0.30098325 0.6653278 0.50704026 0.33429062
0.5638947 -0.10154678 0.10448221 0.31383288 -0.41463095 0.75486416 -0.10636643 -0.34109637
0.6556547 -0.26523784 -0.039291337 -0.24874777 -0.27436024 0.11571459 0.5720506 0.82876873
0.03760076 0.2773473 -0.30529284 -0.17502376 0.47392043 0.43046886 0.45003927 -0.64896786
-0.14331284 -0.15943883 -0.64392525 -0.26796097 0.6465248 -0.38868037 0.21096452 0.68320477

l1.bias f4 [8]
00000000: cfd8 213f 4697 893f efd1 403f d0d7 4a3f
00000010: 4b8c 033f 448e 13be d3e1 223f bb41 403f
0.6322145 1.074929 0.75320333 0.79235554 0.51385945 -0.14409739 0.6362583 0.75100297

l2.weight f4 [8, 8]
00000000: 3968 953e 6472 c43f 318c 87bf 8379 623f
00000010: 1bcc c9bc 8038 d63d ec05 5abe f8e3 fa3e
00000020: c6f9 2cbf b460 053f ef05 a73f be34 b33f
00000030: 0b4e 5abf d000 c73d 1b31 d3bd cf15 373f
00000040: 650a 823d 364a 693f 69dd 613f bc99 88bf
00000050: d52a b83f 4229 2a3c b687 c0be 90dd 6a3f
00000060: 4e04 953f 84e8 f73d dbae 973f 6736 143e
00000070: b065 bb3e d27c df3d a47b ff3d 5dfd ecbe
00000080: bdb7 5a3f 4f7a 663f 32cf 2f3f 9036 743f
00000090: ebfb 20bf c8b8 903e 626b 3cbf 7008 6fbf
000000a0: 80bd 8ebf 9c96 363f 00c8 7c3e f246 da3c
000000b0: 2805 88bf eb38 153e e2b6 5b3f 6b86 3bbd
000000c0: e280 c53d d33c 51bf 3c15 ae3f b2c3 143d
000000d0: d364 12be cb6a 923e db95 bb3f 3f53 b73f
000000e0: 1bd6 c53f 3364 ca3e 5565 b7be 03f4 b0be
000000f0: 675b 88bf aff0 a5be 21b9 0c3f c4ad ab3e
0.29181078 1.5347409 -1.0589658 0.8846666 -0.024633458 0.10459995 -0.21291322 0.4900205
-0.67568624 0.5210068 1.3048686 1.4000471 -0.85275334 0.09716952 -0.103121005 0.7151765
0.06349639 0.9112886 0.8822847 -1.0671916 1.4388071 0.010385813 -0.3760354 0.9174433
1.1641939 0.12104896 1.1850237 0.14473878 0.3660102 0.109124795 0.124747545 -0.4628705
0.8543661 0.9003038 0.6867553 0.95395756 -0.62884396 0.28265977 -0.73601353 -0.9337225
-1.1151581 0.7132356 0.24685669 0.026645157 -1.0626574 0.14572494 0.8582593 -0.045782488
0.09643723 -0.81733435 1.360023 0.036319442 -0.14296274 0.28597102 1.4655107 1.432228
1.5455965 0.3952957 -0.35819498 -0.34561166 -1.0652894 -0.3241019 0.54969984 0.3353101

l2.bias f4 [8]
00000000: b3ac 623f 02ab 8d3e 968d ce3e b0de 4c3e
00000010: 43e3 e43e 456e 1a3f af68 243f 19b9 bd3e
0.8854477 0.2766953 0.40342396 0.20006824 0.44704637 0.6032451 0.64222234 0.3705528

l3.weight f4 [10, 8]
00000000: 58f3 9fbf fdce 39bf a7fe 3e3f a0cc ad3e
00000010: ec2e 79bf dcac d3bf b530 d53e ada0 abbf
00000020: ae8c d83d ac7c d7bf 516d 153f 9967 52ba
00000030: d048 843e dffe 0bbf dddb 80bf 8df4 103f
00000040: 6c59 dbbe 0f8d 553f 4ad4 d1bf 8c95 4cbe
00000050: 8184 74be 0abb 6dbf 9c16 b63e 2551 c2bf
00000060: 900f 293f d25a c0be 1b1f 06bf a558 82bf
00000070: 81f5 4abf c55d 603f 06f8 233e 84fd f1bd
00000080: 0df8 25be e435 ef3d 3f17 2c3e db1f dd3e
00000090: 4ea5 aa3e 2f69 99bf ff89 efbe a7ce cabe
000000a0: 0956 21bf 2089 bebf 5296 80bf 6797 ce3e
000000b0: 0efe c4be cffc 1fbf fa8a d73e fa5e 4f3f
000000c0: f107 d4bf 2ae5 e03d eeea c2be e914 8fbe
000000d0: 0b2b 6abf e9f7 193f 8ca1 f93e da96 fcbd
000000e0: 96b0 e73e 4377 f63e 0d7e 70bf af2b d6be
000000f0: 3a7f 173f 6b50 563f 5662 babf 0535 b8bf
00000100: 6365 453f df39 13bf 3568 703f f555 1bbf
00000110: 60be 3fbf 36fe ecbe 73e3 99bf 2591 c2bf
00000120: 7ae4 0e3f 8678 74be 9b2a acbf e69e 1c3e
00000130: f423 1e3f 3e0d 8ebf c5e8 c8bf d07b fc3e
-1.2496138 -0.72581464 0.7460732 0.3394518 -0.9733722 -1.6537127 0.41638723 -1.3408409
0.105737075 -1.6834922 0.5836993 -0.00080263015 0.25836802 -0.5468578 -1.0067097 0.56623155
-0.4284166 0.83418363 -1.639291 -0.19978923 -0.23878671 -0.92863524 0.35564125 -1.5181013
0.6603937 -0.3756929 -0.52391213 -1.0183302 -0.7928086 0.8764308 0.16012582 -0.118159324
-0.16207905 0.11680201 0.16805743 0.43188366 0.33329242 -1.1985224 -0.4678497 -0.39610788
-0.63021904 -1.4885597 -1.0045874 0.40349886 -0.38475078 -0.6249513 0.42098218 0.810043
-1.6564924 0.109812096 -0.38069862 -0.2794564 -0.9147193 0.60143906 0.48756063 -0.1233346
0.45251912 0.48137864 -0.9394234 -0.41830203 0.5917851 0.8371646 -1.456126 -1.439118
0.7710783 -0.5751018 0.9390901 -0.60678035 -0.74899864 -0.46287698 -1.2022537 -1.5200545
0.5581738 -0.23874101 -1.3450502 0.1529499 0.6177361 -1.1097791 -1.5696036 0.4931321

l3.bias f4 [10]
00000000: 1cf7 9e3e 2248 5fbe 8570 64be 11e2 a33e
00000010: 5d88 4a3d ecdf 9c3e 6166 0d3e 7843 6abe
00000020: 9cce 773d 52e1 8c3e
0.31047904 -0.2180486 -0.22308548 0.32008412 0.049446452 0.3063959 0.13808586 -0.228773
0.060499772 0.27515656
